…
ll,"outputs":[]},{"cell_type":"code","source":["model = wrn_22()"],"metadata":{"id":"BupSTOR9M0ub"},"execution_count":null,"outputs":[]},{"cell_type":"code","source":["model"],"metadata":{"colab":{"base_uri":"https://localhost:8080/"},"id":"RRAoPgfNNNrD","executionInfo":{"status":"ok","timestamp":1707152310266,"user_tz":-330,"elapsed":9,"user":{"displayName":"Shrihari S","userId":"16816155952248943752"}},"outputId":"a6ee2097-1fc6-4529-a7b3-213bbabc53ff"},"execution_count":null,"outputs":[{"output_type":"execute_result","data":{"text/plain":["WideResNet(\n","  (features): Sequential(\n","    (0): Conv2d(3, 16, kernel_size=(3, 3), stride=(1, 1), padding=(1, 1), bias=False)\n","    (1): ResidualBlock(\n","      (bn): BatchNorm2d(16, eps=1e-05, momentum=0.1, affine=True, track_running_stats=True)\n","      (conv1): Conv2d(16, 96, kernel_size=(3, 3), stride=(1, 1), padding=(1, 1), bias=False)\n","      (conv2): Sequential(\n","        (0): BatchNorm2d(96, eps=1e-05, momentum=0.1, affine=True, track_running_stats=True)\n","        (1): ReLU(inplace=True)\n","        (2): Conv2d(96, 96, kernel_size=(3, 3), stride=(1, 1), padding=(1, 1), bias=False)\n","      )\n","      (shortcut): Conv2d(16, 96, kernel_size=(1, 1), stride=(1, 1), bias=False)\n","    )\n","    (2): ResidualBlock(\n","      (bn): BatchNorm2d(96, eps=1e-05, momentum=0.1, affine=True, track_running_stats=True)\n","      (conv1): Conv2d(96, 96, kernel_size=(3, 3), stride=(1, 1), padding=(1, 1), bias=False)\n","      (conv2): Sequential(\n","        (0): BatchNorm2d(96, eps=1e-05, momentum=0.1, affine=True, track_running_stats=True)\n","        (1): ReLU(inplace=True)\n","        (2): Conv2d(96, 96, kernel_size=(3, 3), stride=(1, 1), padding=(1, 1), bias=False)\n","      )\n","    )\n","    (3): ResidualBlock(\n","      (bn): BatchNorm2d(96, eps=1e-05, momentum=0.1, affine=True, track_running_stats=True)\n","      (conv1): Conv2d(96, 96, kernel_size=(3, 3), stride=(1, 1), padding=(1, 1), bias=False)\n","      (conv2): Sequential(\n","        (0): BatchNorm2d(96, eps=1e-05, momentum=0.1, affine=True, track_running_stats=True)\n","        (1): ReLU(inplace=True)\n","        (2): Conv2d(96, 96, kernel_size=(3, 3), stride=(1, 1), padding=(1, 1), bias=False)\n","      )\n","    )\n","    (4): ResidualBlock(\n","      (bn): BatchNorm2d(96, eps=1e-05, momentum=0.1, affine=True, track_running_stats=True)\n","      (conv1): Conv2d(96, 192, kernel_size=(3, 3), stride=(2, 2), padding=(1, 1), bias=False)\n","      (conv2): Sequential(\n","        (0): BatchNorm2d(192, eps=1e-05, momentum=0.1, affine=True, track_running_stats=True)\n","        (1): ReLU(inplace=True)\n","        (2): Conv2d(192, 192, kernel_size=(3, 3), stride=(1, 1), padding=(1, 1), bias=False)\n","      )\n","      (shortcut): Conv2d(96, 192, kernel_size=(1, 1), stride=(2, 2), bias=False)\n","    )\n","    (5): ResidualBlock(\n","      (bn): BatchNorm2d(192, eps=1e-05, momentum=0.1, affine=True, track_running_stats=True)\n","      (conv1): Conv2d(192, 192, kernel_size=(3, 3), stride=(1, 1), padding=(1, 1), bias=False)\n","      (conv2): Sequential(\n","        (0): BatchNorm2d(192, eps=1e-05, momentum=0.1, affine=True, track_running_stats=True)\n","        (1): ReLU(inplace=True)\n","        (2): Conv2d(192, 192, kernel_size=(3, 3), stride=(1, 1), padding=(1, 1), bias=False)\n","      )\n","    )\n","    (6): ResidualBlock(\n","      (bn): BatchNorm2d(192, eps=1e-05, momentum=0.1, affine=True, track_running_stats=True)\n","      (conv1): Conv2d(192, 192, kernel_size=(3, 3), stride=(1, 1), padding=(1, 1), bias=False)\n","      (conv2): Sequential(\n","        (0): BatchNorm2d(192, eps=1e-05, momentum=0.1, affine=True, track_running_stats=True)\n","        (1): ReLU(inplace=True)\n","        (2): Conv2d(192, 192, kernel_size=(3, 3), stride=(1, 1), padding=(1, 1), bias=False)\n","      )\n","    )\n","    (7): ResidualBlock(\n","      (bn): BatchNorm2d(192, eps=1e-05, momentum=0.1, affine=True, track_running_stats=True)\n","      (conv1): Conv2d(192, 384, kernel_size=(3, 3), stride=(2, 2), padding=(1, 1), bias=False)\n","      (conv2): Sequential(\n","        (0): BatchNorm2d(384, eps=1e-05, momentum=0.1, affine=True, track_running_stats=True)\n","        (1): ReLU(inplace=True)\n","        (2): Conv2d(384, 384, kernel_size=(3, 3), stride=(1, 1), padding=(1, 1), bias=False)\n","      )\n","      (shortcut): Conv2d(192, 384, kernel_size=(1, 1), stride=(2, 2), bias=False)\n","    )\n","    (8): ResidualBlock(\n","      (bn): BatchNorm2d(384, eps=1e-05, momentum=0.1, affine=True, track_running_stats=True)\n","      (conv1): Conv2d(384, 384, kernel_size=(3, 3), stride=(1, 1), padding=(1, 1), bias=False)\n","      (conv2): Sequential(\n","        (0): BatchNorm2d(384, eps=1e-05, momentum=0.1, affine=True, track_running_stats=True)\n","        (1): ReLU(inplace=True)\n","        (2): Conv2d(384, 384, kernel_size=(3, 3), stride=(1, 1), padding=(1, 1), bias=False)\n","      )\n","    )\n","    (9): ResidualBlock(\n","      (bn): BatchNorm2d(384, eps=1e-05, momentum=0.1, affine=True, track_running_stats=True)\n","      (conv1): Conv2d(384, 384, kernel_size=(3, 3), stride=(1, 1), padding=(1, 1), bias=False)\n","      (conv2): Sequential(\n","        (0): BatchNorm2d(384, eps=1e-05, momentum=0.1, affine=True, track_running_stats=True)\n","        (1): ReLU(inplace=True)\n","        (2): Conv2d(384, 384, kernel_size=(3, 3), stride=(1, 1), padding=(1, 1), bias=False)\n","      )\n","    )\n","    (10): BatchNorm2d(384, eps=1e-05, momentum=0.1, affine=True, track_running_stats=True)\n","    (11): ReLU(inplace=True)\n","    (12): AdaptiveAvgPool2d(output_size=1)\n","    (13): Flatten()\n","    (14): Linear(in_features=384, out_features=10, bias=True)\n","  )\n",")"]},"metadata":{},"execution_count":18}]},{"cell_type":"code","source":["for img, lbl in train_dl:\n","  out = model(img)\n","  print(out.shape)\n","  break"],"metadata":{"colab":{"base_uri":"https://localhost:8080/"},"id":"Ez-Wf8gYNPra","executionInfo":{"status":"ok","timestamp":1707152377559,"user_tz":-330,"elapsed":13540,"user":{"display
…
